Model: "functional_3"
┏━━━━━━━━━━━━━━━━━━━━━┳━━━━━━━━━━━━━━━━━━━┳━━━━━━━━━━━━┳━━━━━━━━━━━━━━━━━━━┓
┃ Layer (type)        ┃ Output Shape      ┃    Param # ┃ Connected to      ┃
┡━━━━━━━━━━━━━━━━━━━━━╇━━━━━━━━━━━━━━━━━━━╇━━━━━━━━━━━━╇━━━━━━━━━━━━━━━━━━━┩
│ decoder_input       │ (None, 66)        │          0 │ -                 │
│ (InputLayer)        │                   │            │                   │
├─────────────────────┼───────────────────┼────────────┼───────────────────┤
│ decoder_embedding   │ (None, 66, 128)   │ 57,865,600 │ decoder_input[0]… │
│ (Embedding)         │                   │            │                   │
├─────────────────────┼───────────────────┼────────────┼───────────────────┤
│ add_27 (Add)        │ (None, 66, 128)   │          0 │ decoder_embeddin… │
├─────────────────────┼───────────────────┼────────────┼───────────────────┤
│ multi_head_attenti… │ (None, 66, 128)   │    527,488 │ add_27[0][0],     │
│ (MultiHeadAttentio… │                   │            │ add_27[0][0]      │
├─────────────────────┼───────────────────┼────────────┼───────────────────┤
│ dropout_37          │ (None, 66, 128)   │          0 │ multi_head_atten… │
│ (Dropout)           │                   │            │                   │
├─────────────────────┼───────────────────┼────────────┼───────────────────┤
│ add_28 (Add)        │ (None, 66, 128)   │          0 │ add_27[0][0],     │
│                     │                   │            │ dropout_37[0][0]  │
├─────────────────────┼───────────────────┼────────────┼───────────────────┤
│ layer_normalizatio… │ (None, 66, 128)   │        256 │ add_28[0][0]      │
│ (LayerNormalizatio… │                   │            │                   │
├─────────────────────┼───────────────────┼────────────┼───────────────────┤
│ dense_25 (Dense)    │ (None, 66, 512)   │     66,048 │ layer_normalizat… │
├─────────────────────┼───────────────────┼────────────┼───────────────────┤
│ dense_26 (Dense)    │ (None, 66, 128)   │     65,664 │ dense_25[0][0]    │
├─────────────────────┼───────────────────┼────────────┼───────────────────┤
│ dropout_38          │ (None, 66, 128)   │          0 │ dense_26[0][0]    │
│ (Dropout)           │                   │            │                   │
├─────────────────────┼───────────────────┼────────────┼───────────────────┤
│ add_29 (Add)        │ (None, 66, 128)   │          0 │ layer_normalizat… │
│                     │                   │            │ dropout_38[0][0]  │
├─────────────────────┼───────────────────┼────────────┼───────────────────┤
│ layer_normalizatio… │ (None, 66, 128)   │        256 │ add_29[0][0]      │
│ (LayerNormalizatio… │                   │            │                   │
├─────────────────────┼───────────────────┼────────────┼───────────────────┤
│ multi_head_attenti… │ (None, 66, 128)   │    527,488 │ layer_normalizat… │
│ (MultiHeadAttentio… │                   │            │ layer_normalizat… │
├─────────────────────┼───────────────────┼────────────┼───────────────────┤
│ dropout_40          │ (None, 66, 128)   │          0 │ multi_head_atten… │
│ (Dropout)           │                   │            │                   │
├─────────────────────┼───────────────────┼────────────┼───────────────────┤
│ add_30 (Add)        │ (None, 66, 128)   │          0 │ layer_normalizat… │
│                     │                   │            │ dropout_40[0][0]  │
├─────────────────────┼───────────────────┼────────────┼───────────────────┤
│ layer_normalizatio… │ (None, 66, 128)   │        256 │ add_30[0][0]      │
│ (LayerNormalizatio… │                   │            │                   │
├─────────────────────┼───────────────────┼────────────┼───────────────────┤
│ dense_27 (Dense)    │ (None, 66, 512)   │     66,048 │ layer_normalizat… │
├─────────────────────┼───────────────────┼────────────┼───────────────────┤
│ dense_28 (Dense)    │ (None, 66, 128)   │     65,664 │ dense_27[0][0]    │
├─────────────────────┼───────────────────┼────────────┼───────────────────┤
│ dropout_41          │ (None, 66, 128)   │          0 │ dense_28[0][0]    │
│ (Dropout)           │                   │            │                   │
├─────────────────────┼───────────────────┼────────────┼───────────────────┤
│ add_31 (Add)        │ (None, 66, 128)   │          0 │ layer_normalizat… │
│                     │                   │            │ dropout_41[0][0]  │
├─────────────────────┼───────────────────┼────────────┼───────────────────┤
│ layer_normalizatio… │ (None, 66, 128)   │        256 │ add_31[0][0]      │
│ (LayerNormalizatio… │                   │            │                   │
├─────────────────────┼───────────────────┼────────────┼───────────────────┤
│ multi_head_attenti… │ (None, 66, 128)   │    527,488 │ layer_normalizat… │
│ (MultiHeadAttentio… │                   │            │ layer_normalizat… │
├─────────────────────┼───────────────────┼────────────┼───────────────────┤
│ dropout_43          │ (None, 66, 128)   │          0 │ multi_head_atten… │
│ (Dropout)           │                   │            │                   │
├─────────────────────┼───────────────────┼────────────┼───────────────────┤
│ add_32 (Add)        │ (None, 66, 128)   │          0 │ layer_normalizat… │
│                     │                   │            │ dropout_43[0][0]  │
├─────────────────────┼───────────────────┼────────────┼───────────────────┤
│ layer_normalizatio… │ (None, 66, 128)   │        256 │ add_32[0][0]      │
│ (LayerNormalizatio… │                   │            │                   │
├─────────────────────┼───────────────────┼────────────┼───────────────────┤
│ dense_29 (Dense)    │ (None, 66, 512)   │     66,048 │ layer_normalizat… │
├─────────────────────┼───────────────────┼────────────┼───────────────────┤
│ dense_30 (Dense)    │ (None, 66, 128)   │     65,664 │ dense_29[0][0]    │
├─────────────────────┼───────────────────┼────────────┼───────────────────┤
│ dropout_44          │ (None, 66, 128)   │          0 │ dense_30[0][0]    │
│ (Dropout)           │                   │            │                   │
├─────────────────────┼───────────────────┼────────────┼───────────────────┤
│ add_33 (Add)        │ (None, 66, 128)   │          0 │ layer_normalizat… │
│                     │                   │            │ dropout_44[0][0]  │
├─────────────────────┼───────────────────┼────────────┼───────────────────┤
│ layer_normalizatio… │ (None, 66, 128)   │        256 │ add_33[0][0]      │
│ (LayerNormalizatio… │                   │            │                   │
├─────────────────────┼───────────────────┼────────────┼───────────────────┤
│ multi_head_attenti… │ (None, 66, 128)   │    527,488 │ layer_normalizat… │
│ (MultiHeadAttentio… │                   │            │ layer_normalizat… │
├─────────────────────┼───────────────────┼────────────┼───────────────────┤
│ dropout_46          │ (None, 66, 128)   │          0 │ multi_head_atten… │
│ (Dropout)           │                   │            │                   │
├─────────────────────┼───────────────────┼────────────┼───────────────────┤
│ add_34 (Add)        │ (None, 66, 128)   │          0 │ layer_normalizat… │
│                     │                   │            │ dropout_46[0][0]  │
├─────────────────────┼───────────────────┼────────────┼───────────────────┤
│ layer_normalizatio… │ (None, 66, 128)   │        256 │ add_34[0][0]      │
│ (LayerNormalizatio… │                   │            │                   │
├─────────────────────┼───────────────────┼────────────┼───────────────────┤
│ dense_31 (Dense)    │ (None, 66, 512)   │     66,048 │ layer_normalizat… │
├─────────────────────┼───────────────────┼────────────┼───────────────────┤
│ dense_32 (Dense)    │ (None, 66, 128)   │     65,664 │ dense_31[0][0]    │
├─────────────────────┼───────────────────┼────────────┼───────────────────┤
│ dropout_47          │ (None, 66, 128)   │          0 │ dense_32[0][0]    │
│ (Dropout)           │                   │            │                   │
├─────────────────────┼───────────────────┼────────────┼───────────────────┤
│ add_35 (Add)        │ (None, 66, 128)   │          0 │ layer_normalizat… │
│                     │                   │            │ dropout_47[0][0]  │
├─────────────────────┼───────────────────┼────────────┼───────────────────┤
│ layer_normalizatio… │ (None, 66, 128)   │        256 │ add_35[0][0]      │
│ (LayerNormalizatio… │                   │            │                   │
├─────────────────────┼───────────────────┼────────────┼───────────────────┤
│ encoder_input       │ (None, 2845)      │          0 │ -                 │
│ (InputLayer)        │                   │            │                   │
├─────────────────────┼───────────────────┼────────────┼───────────────────┤
│ dense_33 (Dense)    │ (None, 66,        │ 58,317,675 │ layer_normalizat… │
│                     │ 452075)           │            │                   │
└─────────────────────┴───────────────────┴────────────┴───────────────────┘
…
